mandetection/HereIacMobileNetV2A3.tflite (tflite, 717236 bytes, 72 tensors)

bottleneck_stride1/conv2d/Conv2D_bias f4 [16]
000000 16 da 5a 3d 24 66 9f 3b 80 07 72 be 4d b1 69 bd
       0.05343064 0.004864471 -0.23635674 -0.057053853
000010 00 62 48 3c 90 65 72 3d 62 50 68 bd de 80 c6 3d
       0.012230396 0.05917889 -0.056717284 0.09692548
000020 16 ea 85 ba 93 69 94 3c 5a 95 2b be 86 a9 69 be
       -0.0010216858 0.018116748 -0.16756192 -0.22818574
000030 e7 fa 0c b8 a1 17 fe bd 4e 44 b4 bc 35 5d fa 3d
       -3.3612272e-05 -0.124068506 -0.022005226 0.12224809

bottleneck_stride1/conv2d_1/Conv2D_bias f4 [16]
000000 95 be a3 bd fa 84 af bd f0 f1 f7 3d 7e b8 1c bc
       -0.07995335 -0.08570285 0.12106693 -0.009565471
000010 a4 d5 89 bd b7 2a 98 3d b8 d6 ca 3d 22 32 d4 3d
       -0.06730202 0.07430022 0.099042356 0.103611246
000020 8b b4 01 3d fe d3 be bd 9c 6f 20 3d 5e 4e fb bd
       0.03166632 -0.09317778 0.03916894 -0.12270807
000030 b6 2d b3 3d 8f 5d b7 3d 06 31 59 3d 59 04 04 3d
       0.08748953 0.08953392 0.053025268 0.03223071

bottleneck_stride1/depthwise_convolution/depthwise_bias f4 [16]
000000 ec e8 87 bd 42 44 9d 3d 86 9a 7d 3e 9d 00 a5 3e
       -0.06636223 0.07679035 0.24765977 0.3222703
000010 24 b7 70 be d1 d8 e6 3e bd 41 1d be 85 08 48 be
       -0.23507363 0.45087293 -0.15357108 -0.195345
000020 0a f5 3c be 1a b1 9f be df d2 35 bd e2 44 ac 3e
       -0.1845285 -0.31189805 -0.044390555 0.33646303
000030 0c 93 d2 3d 1c 78 bf 3c 5e 7d 6d be dc d8 b0 3e
       0.10281953 0.023372702 -0.23192355 0.3454045

bottleneck_stride1_1/conv2d/Conv2D_bias f4 [64]
000000 88 b6 2a 3d 9e 1b 9a 3c f6 3d a0 3d 54 c0 f2 bb
       0.04167798 0.018811997 0.07824318 -0.007408181
000010 dd 99 b6 bc 14 63 00 be 68 96 ae 3d 95 2e 63 bd
       -0.022290165 -0.12537795 0.085247815 -0.055464346
000020 3a 68 9a 3d 06 a7 a9 3d d8 78 47 3c 8f 5c 2a 3d
       0.07539411 0.0828381 0.0121748075 0.041592177
000030 4e b8 2c 3e 92 6b da bd 08 5a 51 3e af 3a 8c bd
       0.16867182 -0.10665049 0.204445 -0.068471305
000040 ee 4e 3e be f2 9d 81 be fc 98 1e 3e 65 3d c1 bd
       -0.18584797 -0.25315815 0.15488046 -0.09435538
000050 4b 5c 4b b9 e6 22 85 be a1 72 88 3d 90 55 9c bd
       -0.0001939397 -0.26003188 0.06662489 -0.07633507
000060 a6 77 4c bd 30 25 72 be aa 36 21 be 28 c6 3d be
       -0.049918793 -0.23646998 -0.15743509 -0.18532622
000070 6b d2 05 bd ba da 8f bd 64 0e 0e be 7d 9b fa bd
       -0.032671373 -0.07024141 -0.13872677 -0.12236688
000080 e5 0b ca 3d f7 1a c4 bd 9c 45 2e be 04 c5 0d bd
       0.0986555 -0.09575456 -0.17018741 -0.034611717
000090 36 11 24 3e 42 43 43 3d b7 3b 5e bd 6c 74 68 bd
       0.1602219 0.047671564 -0.054256167 -0.056751654
0000a0 52 6d b1 be 80 67 ca bc 4f f2 93 bd 42 f7 f4 3c
       -0.34653717 -0.024707556 -0.07223951 0.029903058
0000b0 a6 4f b7 bd 54 18 e2 bd b7 95 fe bd 6e 3e 29 be
       -0.089507386 -0.110397965 -0.124308996 -0.16527721
0000c0 07 79 15 3e f7 11 aa bd d6 9f 59 3d fa c5 29 be
       0.1459695 -0.08304208 0.053130947 -0.16579428
0000d0 fe 1c be 3d 70 a1 d0 3c 3c 64 63 bd 70 0a 8f bb
       0.092828736 0.025467604 -0.055515513 -0.004365258
0000e0 9c 24 06 3d 34 6c e6 bd 2e 5a 05 be f0 00 cc be
       0.032749757 -0.11251107 -0.13022682 -0.39844465
0000f0 68 41 1c be 3c 91 37 3e ac e4 72 bc 31 32 63 3e
       -0.15259326 0.17926496 -0.014825027 0.22187115

bottleneck_stride1_1/conv2d_1/Conv2D_bias f4 [32]
000000 b6 b3 8f 3d 7f 23 ed bc 94 85 9d 39 44 9a 7c bd
       0.07016699 -0.02894759 0.00030044897 -0.061670557
000010 e8 eb 80 3d 2c ef 57 bc 2c c4 0c bc e2 34 d7 3d
       0.062949955 -0.013179582 -0.008591693 0.105081335
000020 be c9 15 3e 77 e5 50 3d 92 6e be 3d 50 50 22 3c
       0.1462774 0.051000085 0.09298433 0.009906843
000030 94 fd 66 3d 7e 09 4e bd f6 8d 7c 3d 94 9f 16 bd
       0.056394175 -0.05030202 0.061658822 -0.03677328
000040 dc 68 86 bc 3d f9 bf 3d bb 2a 3f 3d 73 d9 f7 bd
       -0.016407423 0.0937371 0.04667161 -0.12102022
000050 79 50 20 be b4 4b f2 bd e6 8b 84 3d 80 b0 8c 3d
       -0.15655698 -0.118308455 0.06471996 0.06869602
000060 90 a9 1d 3d 60 14 d7 bc 9b 0d 3c 3d 91 a0 20 bd
       0.038491786 -0.026254833 0.045911413 -0.039215628
000070 aa 62 01 3e b4 f2 11 3e f0 66 a3 bd 47 fd 02 bd
       0.12635294 0.1425274 -0.07978618 -0.031979825

bottleneck_stride1_1/depthwise_convolution/depthwise_bias f4 [64]
000000 ad 22 81 bd 54 ff cb 3c 38 38 f7 3c 5d c3 9b 3d
       -0.06305442 0.024902023 0.030178174 0.07605622
000010 12 9c c2 bd be 53 26 bd ca b7 ac bd 08 76 37 bc
       -0.09502424 -0.040607207 -0.084334925 -0.011197574
000020 70 af b4 bc c6 6a a7 3c fd fa 42 be 98 44 63 bd
       -0.022056311 0.020436656 -0.19041057 -0.055485338
000030 2c ec c4 3d 30 c0 70 bc 52 66 26 bd 2e 27 df bc
       0.09615359 -0.014694259 -0.040624924 -0.027240362
000040 c6 64 80 be b0 3b 95 3c c2 f5 86 bd a6 6e 14 be
       -0.25076884 0.018216938 -0.06589843 -0.14495334
000050 dc 83 69 be 0e b5 80 bc 19 65 04 3d 27 6f 69 bd
       -0.22804207 -0.015711334 0.032322977 -0.05699077
000060 04 03 23 3d 8c 79 c5 3a 4d 83 d1 bd ee dd eb 3d
       0.039797798 0.0015066131 -0.10230122 0.11516939
000070 50 37 3a 3c 64 a8 20 3c ba 71 5d 3d 82 b0 35 3e
       0.011365727 0.009805772 0.054063536 0.17743114
000080 80 4d 55 3a 16 eb 98 3d 27 fe 94 bc 52 cb 24 bd
       0.00081368536 0.07466714 -0.018187596 -0.040232964
000090 60 67 57 3c 34 78 77 bd f2 01 3a 3d a2 e1 03 bd
       0.013147205 -0.06041737 0.04541201 -0.032197602
0000a0 62 cf 86 be 89 84 8e bc 5a 12 f3 bc 55 86 10 be
       -0.26330096 -0.017397182 -0.029671837 -0.14113744
0000b0 d8 3e 63 3e fa d3 6f bc 70 8f c4 bb 54 ce ec bc
       0.22191942 -0.0146379415 -0.0059985444 -0.028906979
0000c0 ce c6 fc bc 64 89 96 bc 8b cb d5 3d 5d ae f7 bc
       -0.030856516 -0.01837606 0.10439213 -0.03023451
0000d0 06 de 6b 3e 5e 3f 9a bc 46 2b 8f bc b8 30 f3 3d
       0.23033914 -0.018829044 -0.01747669 0.11874527
0000e0 48 7d 5e bc a1 d7 3d bd 4b 64 32 bd 67 75 09 be
       -0.013579674 -0.046348218 -0.043552678 -0.13423692
0000f0 42 d3 4b bd 2c ca 43 3d 66 82 91 3c 22 cc 40 3d
       -0.049762018 0.047800228 0.017762374 0.047069676

bottleneck_stride1_2/conv2d/Conv2D_bias f4 [128]
000000 44 d5 83 bd b4 01 8f bd a5 88 98 be f5 39 90 3b
       -0.064371616 -0.06982747 -0.29791752 0.0044014403
000010 50 5d 8a bb 19 1d 74 bd 6e 33 c0 3c 62 61 35 bb
       -0.0042225495 -0.059598062 0.023462024 -0.0027676453
000020 98 6f ab 3d 26 97 09 be d0 a9 49 bd 7e 0d b2 3e
       0.08370894 -0.13436565 -0.04923421 0.3477592
000030 33 e7 c3 3d 88 f7 e2 bd 53 54 76 3d 66 b7 bd 3d
       0.09565582 -0.11082369 0.06013901 0.09263496
000040 0a d1 d7 3c d0 73 07 be ae 02 5e be de 8a 63 be
       0.026344795 -0.13227773 -0.2168071 -0.22220942
000050 bc fe 0a bb 66 a5 02 be 50 3e 66 3e 1a a2 c4 bd
       -0.0021208962 -0.12758407 0.22484708 -0.09601231
000060 78 6f f7 3d e0 89 1a be 38 5c 00 be 16 b1 86 be
       0.12081808 -0.15091658 -0.12535179 -0.2630698
000070 86 16 9f bd 27 28 44 be 54 b9 0e 3e 4c c6 e9 39
       -0.07767968 -0.19155942 0.13937885 0.00044588966
000080 e7 e0 3d be c8 6a e8 3e a8 13 be 3c a1 c3 55 3d
       -0.18542825 0.45393968 0.023202732 0.05218852
000090 a0 89 e7 bd db fc 01 be 79 0f 38 be b5 66 65 be
       -0.11305547 -0.12694113 -0.17974652 -0.22402461
0000a0 8c 8f 24 be 2e 16 3d bd 78 58 63 3d a0 46 ac bd
       -0.16070384 -0.04616373 0.055504292 -0.08411908
0000b0 3c 85 ce 3d 3a 8c 5b be fe 24 44 3e 3d fc 58 be
       0.10084006 -0.21440211 0.19154736 -0.21189971
0000c0 93 d0 d0 3d 13 c9 d2 3d 0d f9 a9 bc bc 9c 91 bd
       0.101960324 0.10292258 -0.02074864 -0.07109973
0000d0 c4 1c 8d bd 19 4f 8e 3e ec 51 d7 3d 68 87 25 be
       -0.06890252 0.27794722 0.10513672 -0.16164935
0000e0 36 ac e6 bd 0f 92 2f be 94 d4 8b 3c 64 ff 08 3e
       -0.112633154 -0.1714556 0.017069139 0.13378674
0000f0 73 ab b9 bd cd ca 37 be a8 d4 94 3d 0d 76 d9 3d
       -0.090659045 -0.17948456 0.072671235 0.106182195
000100 18 18 a7 3d 66 37 78 be b8 ca 3b 3b b9 8c 12 3e
       0.081588924 -0.24239883 0.0028654765 0.14311494
000110 a0 63 d6 3d d8 fd 5c bd 9c 32 3a be f2 9f 7e bd
       0.10468221 -0.05395302 -0.18183368 -0.062164254
000120 4c 24 41 be 64 a6 b2 3e de d2 ef 3d 38 95 21 3e
       -0.18861502 0.3489257 0.117101416 0.15779579
000130 e6 6e 89 3e 16 b6 d0 bd 24 e7 aa bd ba e7 b4 3d
       0.2684242 -0.1019098 -0.08344868 0.08833261
000140 ca 31 3e 3e 5b e5 01 be 7a bc 43 bc f2 5e 81 bd
       0.1857368 -0.12685148 -0.011946792 -0.063169375
000150 2c 1c 52 3b a4 cf db 3c ac 96 cb bd 6e 2d 01 be
       0.0032060249 0.02683241 -0.09940848 -0.12614986
000160 58 54 8a 3d c8 85 97 bd 82 95 2a be a9 14 d5 3d
       0.067543685 -0.073985636 -0.16658595 0.10404331
000170 24 4e 43 bb 71 11 e6 bd a4 44 aa bd 9a 30 fb bd
       -0.0029801214 -0.112337954 -0.083138734 -0.122651294
000180 8e 0d 0f be c0 06 ac bc 70 94 0e 3e e0 f8 f8 bc
       -0.13970014 -0.020999312 0.13923812 -0.03039211
000190 9d 4b 51 bd fc 51 e5 bd 81 77 d8 bd ff fb 4a bd
       -0.0510975 -0.11197278 -0.105696686 -0.04955673
0001a0 6a 95 d9 3d 61 12 12 3e 92 4c 66 bd b9 9e 33 3e
       0.106242016 0.14264823 -0.056225367 0.17541017
0001b0 63 38 ca bd 3e 94 0d 3e e2 b5 e5 3d 94 88 18 be
       -0.09874036 0.13826081 0.11216332 -0.1489585
0001c0 2a d0 45 3e b0 47 54 be f4 70 fe bd 91 7a 11 be
       0.1931769 -0.20730472 -0.12423888 -0.14206912
0001d0 02 3d a2 3d 98 0e 0a be ec 5c 17 3e 34 e0 e5 bd
       0.079217926 -0.1348213 0.1478154 -0.11224404
0001e0 74 f8 ce bd ca cd d2 3c 2a ff 35 be 27 88 44 be
       -0.101059824 0.025732893 -0.17773119 -0.19192563
0001f0 34 d6 9d 3d 3a 3d 54 bd b4 55 f9 3d a1 79 91 bd
       0.07706872 -0.051816203 0.1217455 -0.07103277

bottleneck_stride1_2/conv2d_1/Conv2D_bias f4 [64]
000000 6e 15 70 bd da bd 22 3c 5a f8 28 3d b4 46 ca bc
       -0.058614187 0.009932959 0.04125247 -0.024691917
000010 b4 cf 94 3d 02 36 1c bd c4 86 59 3d 73 53 98 bb
       0.07266179 -0.038137443 0.05310704 -0.00464862
000020 d3 ea c3 bd 66 0b 15 3e 3c bb 65 3d c4 2c a9 3d
       -0.095662735 0.1455513 0.056086764 0.082604915
000030 d4 5d fa bd d5 c3 c1 3d 82 da f2 3b 2c d4 45 3d
       -0.122249275 0.0946118 0.007411302 0.048298046
000040 e4 81 31 bc 88 d6 8e bd 31 13 8f 3d 3a 18 92 bc
       -0.010834191 -0.06974512 0.06986082 -0.017833818
000050 b8 df 35 3d 9c 67 ca 3d c9 d1 b7 3d 4e a5 43 bd
       0.044402808 0.09883043 0.0897556 -0.04776507
000060 a0 60 9c bc 8e fb d8 3d 2e 68 8f bd 74 ef 4e bd
       -0.019089043 0.10594855 -0.070022926 -0.05052133
000070 f0 ef bb 3c 26 5d 72 bd 84 0e 72 bd 7c 44 76 3d
       0.02294156 -0.059170865 -0.059095874 0.060123906
000080 6a 65 40 3e f9 98 17 bd 7f f5 9f bd 8f a5 9b bd
       0.18788686 -0.03701112 -0.078104965 -0.07599937
000090 42 08 cd 3d 0c b8 8e bd 18 72 17 3e f5 88 8a 3d
       0.10011341 -0.06968698 0.14789617 0.06764404
0000a0 7c eb ca 3c f6 93 8c bd 63 da dd bd 32 56 d6 3c
       0.02477049 -0.06864159 -0.108326696 0.026164148
0000b0 f7 97 fc 3c de f4 9e 3d 14 3b f7 bc ed dc ac bc
       0.030834181 0.077615485 -0.030179538 -0.02110144
0000c0 b4 ef 95 3c fa ab eb 3c b6 2b 37 3c 35 f8 a5 3d
       0.018302776 0.028768528 0.011179855 0.08103982
0000d0 75 31 cb 3c 72 2e bd bd c2 6f f8 3c a9 b5 e4 3d
       0.024803856 -0.09237374 0.030326728 0.111674614
0000e0 9c fb 0f bd b8 5c c1 bd 6a d8 91 bd 3a 14 52 bc
       -0.035152063 -0.09441513 -0.07121356 -0.012822205
0000f0 6e 07 4b be 40 e5 c5 3d 0c 93 e6 3b 4a 67 a2 bd
       -0.19827053 0.096628666 0.0070365723 -0.07929857

bottleneck_stride1_2/depthwise_convolution/depthwise_bias f4 [128]
000000 5c 0a e0 3c 62 ab 9e bd e3 f7 10 be 38 b2 be 3c
       0.02734869 -0.077475324 -0.14157061 0.02327834
000010 5e 4e a8 bd 5f 02 1f bd ed ee 06 bc 80 09 02 b9
       -0.08218072 -0.03882062 -0.008235675 -0.00012401305
000020 e9 ee fb bc 50 50 6f bc e8 b7 40 be 5d c4 ae bc
       -0.03075357 -0.01460655 -0.18820155 -0.021333868
000030 ba 20 8a bd 14 f2 ce bd f8 52 cc bb eb 91 1b 3e
       -0.06744523 -0.101047665 -0.0062354766 0.15192382
000040 b8 c5 7d 3d 9a 54 e5 bd bf 23 e7 bd 77 09 90 be
       0.061956137 -0.11197777 -0.11286115 -0.2813222
000050 9b 82 1f be 80 ac cc b9 e8 7d 71 3e 80 d6 3c 3d
       -0.15577166 -0.00039038435 0.23583186 0.046103
000060 d5 bb 5f bc 01 d3 a0 bd 15 e2 da 3c 22 40 37 be
       -0.0136556225 -0.07852746 0.026719132 -0.17895558
000070 bc 42 96 bd d4 48 46 bc 1c c4 d2 bd a7 db 92 bd
       -0.07336947 -0.0121023245 -0.10291311 -0.071708016
000080 38 28 b2 bb 6e a6 9a 3d 34 c0 e4 bd 66 6a 53 3d
       -0.0054369234 0.07551275 -0.11169472 0.05161514
000090 92 74 ba bd a0 94 7e bd 32 80 26 bd 3a 84 f7 3c
       -0.09104265 -0.06215346 -0.0406496 0.030214418
0000a0 16 fd 88 3d b9 b3 b7 bc db 8f a7 bd bc cb 03 bd
       0.06688897 -0.022424566 -0.08181735 -0.032176718
0000b0 cc 8c 46 bd c1 28 9c 3d 38 65 a1 bb b9 c8 86 bd
       -0.048474118 0.07624961 -0.0049253963 -0.065812536
0000c0 26 0e ea bd 74 18 0f bd 0c fe 81 bb d6 50 bd bd
       -0.1142848 -0.03493543 -0.0039670523 -0.09243934
0000d0 e8 15 ec bb 6a 61 0a bd d3 b6 bb 3d ca df 22 bd
       -0.00720476 -0.033784308 0.0916573 -0.039764203
0000e0 1a 40 33 bd 30 1a 81 bb f7 2a 78 bc a8 7b 05 3b
       -0.043762304 -0.0039398894 -0.015146962 0.0020367894
0000f0 54 fd a6 3c 99 a9 9e 3c f5 73 fa bd 6e 12 15 bd
       0.020384468 0.01936798 -0.12229148 -0.03639453
000100 77 ae 07 bd 6e de 6d bd e1 d8 2b 3d a5 1d d4 bc
       -0.033125367 -0.058073454 0.04195488 -0.025893042
000110 03 cc 1a bd d2 a3 85 bc df e2 70 3d 25 37 8a bc
       -0.037792217 -0.016313467 0.05881011 -0.016871998
000120 b0 6a 07 be 53 bb e7 bd c8 c3 28 3c 35 d8 25 be
       -0.13224292 -0.11315026 0.010300584 -0.16195758
000130 38 52 c7 3d 52 74 b9 bc 52 c0 35 3d c0 91 4b ba
       0.09732479 -0.022638474 0.044372864 -0.0007765554
000140 c0 c1 57 3b 32 17 7e bd 7f 50 91 bd 1c 8d fa bc
       0.003292188 -0.06203384 -0.070954315 -0.030584864
000150 34 09 c0 bc 61 7f 45 bd d6 15 4b bd 5b c4 cd bd
       -0.023441888 -0.04821718 -0.04958137 -0.100472175
000160 d8 4c fd 3d 8c 37 96 bd 2c 24 a0 bd b7 7b aa bc
       0.123681724 -0.073348135 -0.07819399 -0.020810945
000170 56 f6 ac 3c e6 68 e0 bd 58 e1 98 bc f4 09 0e 3e
       0.021113556 -0.10957508 -0.01866214 0.13870984
000180 e2 40 36 bd 41 92 98 3d 06 c3 6e bd f0 7d ad bd
       -0.04449547 0.07449771 -0.058291458 -0.08471286
000190 7e ef 18 be 16 20 70 bd 37 9d 36 3d 14 85 79 bc
       -0.14935109 -0.05862435 0.044583526 -0.015229482
0001a0 e0 29 08 3b 68 96 bd 3b 40 9e 9e ba 56 0c 24 3e
       0.0020776913 0.005785752 -0.0012101606 0.16020331
0001b0 67 ca dd bd de 40 f6 3d 80 51 1d bd 00 38 4e 3a
       -0.10829621 0.12024091 -0.038407803 0.0007866621
0001c0 c7 8d 03 bd a8 b5 71 3d cc b9 0d bd fa 24 6b bc
       -0.03211763 0.05901113 -0.034601018 -0.014352078
0001d0 a2 91 c4 3c 17 fc 28 be 99 3c 9e 3d 5e ac fe 3d
       0.023995224 -0.16502415 0.07726402 0.1243522
0001e0 d4 ff 13 bd 48 51 c1 bc b4 db 9c bd cf 0e 05 bd
       -0.03613265 -0.023598328 -0.076590925 -0.032484826
0001f0 3a d1 73 bd b7 3e 52 be 2c a2 27 bd d2 07 bc bc
       -0.059525706 -0.20531736 -0.040926144 -0.022952948

bottleneck_stride1_3/conv2d/Conv2D_bias f4 [128]
000000 bd 4e 95 bd 43 35 49 3c fc 6e ed bd 58 af 19 be
       -0.07290409 0.012280765 -0.11593434 -0.15008295
000010 3a 21 44 be 5a dc 01 3e 1e fd 5f be d2 25 f0 bd
       -0.191533 0.12681714 -0.218739 -0.11725964
000020 4f 14 e7 bc 6f 24 37 be e4 4f 2a bc 0e 41 c9 bd
       -0.028207926 -0.17884992 -0.010395024 -0.09826861
000030 ea e8 27 3e dc 4a 64 3c 1b 08 87 3b 96 5c 83 be
       0.16397443 0.0139338635 0.0041208393 -0.25656575
000040 76 44 1b 3e f0 19 31 3e 78 f0 49 be 1c 6f 71 3e
       0.15162835 0.1729505 -0.19720638 0.23577541
000050 2b fc bb 3d f4 51 cb 3d 7c 94 9b be 7f ce 6b 3c
       0.091789566 0.09927741 -0.30386722 0.014392494
000060 e5 63 46 be fd 89 0d 3d 78 49 16 3d 1c 71 bb 3c
       -0.19374044 0.034555424 0.03669116 0.022881083
000070 fe a1 35 3e 64 9f e0 3c 12 56 4f be 59 72 a9 be
       0.17737576 0.027419753 -0.20247677 -0.33095053
000080 3e f5 ca 3b 0f 97 a3 3d 5d 6e 26 be a0 4c e5 bd
       0.006193786 0.079877965 -0.16253038 -0.11196256
000090 18 7e 2d 3d 49 9d 92 be 8a 0e b6 bd d8 e5 3f 3d
       0.04235658 -0.28635624 -0.08889492 0.046850055
0000a0 84 2e 8e bd c8 5c 2c bd 94 1e 6d bd ad b4 03 3e
       -0.06942466 -0.04208067 -0.05789049 0.12861891
0000b0 49 9a 94 3e cc ab bf bc fc 33 75 be 84 65 ad 3d
       0.2902396 -0.023397349 -0.23945612 0.08466628
0000c0 5e c7 28 bd 0f a2 75 be 12 ca 3c be bd bd 36 3d
       -0.041205756 -0.23987602 -0.18436459 0.044614542
0000d0 3a 2f a9 3d 10 35 74 3d 22 31 2d bd da e7 68 be
       0.08260961 0.059620917 -0.042283185 -0.22744694
0000e0 33 f6 90 bd 1c 5e f7 bd 73 70 81 bd 1d 68 ed 3c
       -0.07078209 -0.12078497 -0.06320276 0.02898031
0000f0 2e fc fc bd b0 d5 8a bd 49 41 80 be 8c 60 e4 bd
       -0.12352787 -0.06779039 -0.2504981 -0.11151227
000100 43 e9 46 3e 67 7b ac bd 23 9c 84 be be e3 5a be
       0.1942492 -0.08421975 -0.25900373 -0.21375939
000110 c6 be 65 bd 66 8d 4a 3e 08 e3 07 be 9b fb 74 be
       -0.05609014 0.19780502 -0.132702 -0.23924105
000120 52 46 20 3d b1 b1 12 be d0 70 43 be 79 48 3a be
       0.039129563 -0.14325596 -0.19086003 -0.18191709
000130 9a 5e 5b be e3 c3 09 3e f5 7d 75 ba cc 34 11 3e
       -0.21422806 0.13453631 -0.00093647774 0.14180297
000140 0b 12 83 bd 72 30 2e 3e 8a 5b b8 3e 94 0c b8 bd
       -0.06399926 0.17010668 0.3600734 -0.08986774
000150 92 a1 c0 3b 4e ab 24 be 40 1a 21 be 07 2a 85 3d
       0.0058786357 -0.16080973 -0.1573267 0.06502157
000160 86 fe 4b be 0a 92 a7 3c 2c 76 8f bd 2d b7 16 3d
       -0.19921312 0.020455379 -0.07004961 0.036795784
000170 70 89 65 bd f2 09 b0 3c a4 fa 67 be 50 0e 88 be
       -0.056039274 0.021489117 -0.22654206 -0.2657342
000180 92 fa 69 be 95 6b 5b bd 2e c4 20 be 48 9b d7 bd
       -0.22849491 -0.053569395 -0.15699837 -0.105276644
000190 28 8f bf 3d 52 d8 51 bd e4 81 77 bd e2 eb 5f 3d
       0.09353477 -0.05123169 -0.060426608 0.054668315
0001a0 60 c4 ec bd 28 f5 18 be bb 1b 07 be a8 b4 44 bd
       -0.11560893 -0.1493727 -0.13194172 -0.04802385
0001b0 fc 80 44 be 35 e6 8d bd d6 1f 90 be bb 7a a6 be
       -0.19189829 -0.06928674 -0.2814929 -0.3251551
0001c0 50 c8 19 be 39 64 55 be 7e 17 bf bd c6 24 20 be
       -0.1501782 -0.20839013 -0.09330653 -0.15639028
0001d0 ee a1 a7 3e 90 1f 27 be ef e2 f8 bd 84 59 f7 bb
       0.3274073 -0.16320634 -0.12152659 -0.007548513
0001e0 c9 67 b4 bd b2 7c 0b 3e 27 9c e2 bd 2a 14 04 be
       -0.08808858 0.13621786 -0.1106494 -0.12898317
0001f0 c0 b1 e3 bc af 09 74 be fe 7d ad 3e e6 fc 29 bb
       -0.027794719 -0.23831819 0.33885187 -0.0025938093

bottleneck_stride1_3/conv2d_1/Conv2D_bias f4 [64]
000000 b6 0b aa bd 2e 13 65 3d 35 02 16 3c 2b a2 90 bc
       -0.08303015 0.055926494 0.0091558 -0.017655453
000010 e6 f2 d4 3c 3a 2a 6f bd 16 d5 c8 3c 68 86 a6 3b
       0.02599473 -0.05838988 0.02451567 0.0050819404
000020 d2 64 88 bd 08 03 46 3e a6 05 62 3d cc ef 9c 3d
       -0.06659855 0.19337094 0.055181168 0.07662925
000030 8c 82 bd bd 24 22 d7 3d eb 58 8a 3c f5 2e 02 3e
       -0.092534155 0.10504559 0.016888103 0.12713225
000040 f1 24 8c 3b 1e ad 6b bd 3a a5 07 3b 28 2a 3b bd
       0.0042768647 -0.057538144 0.0020697848 -0.0456945
000050 e4 cb 20 bd 6d 3d 0d 3e 6e 1d 36 3d 6c a1 51 bd
       -0.039256945 0.13792963 0.04446166 -0.051179335
000060 da 5e c2 bc e6 df e7 3d 33 a5 ee bd 94 16 7f bd
       -0.02372687 0.11322002 -0.11652603 -0.06227739
000070 3a 0c e8 3c 5f f8 ab bc 04 88 de bc 42 8f 89 3d
       0.028326143 -0.020992456 -0.027164467 0.067167774
000080 68 b9 3d 3e 2d d7 62 bc 24 bd 90 bd 06 ea b2 bd
       0.18527758 -0.013845247 -0.07067326 -0.08736043
000090 10 48 ba 3d 59 10 a8 bd 9a f6 34 3e 50 6f 36 3d
       0.09095776 -0.08206243 0.17672196 0.04453975
0000a0 ac 85 43 3d 0d 2d 66 bd b8 35 e9 bd 7a 50 02 3d
       0.0477349 -0.056195308 -0.11387199 0.03181503
0000b0 88 f4 9b bd e2 d4 36 3d 50 2e c2 bd f2 48 ae bc
       -0.07615 0.044636615 -0.0948149 -0.021275017
0000c0 83 67 27 bc 56 e7 dc 3c 6f db 30 3b 93 18 84 3d
       -0.01021755 0.026965778 0.0026986261 0.0645
0000d0 80 82 cd 3c 50 be a8 bd de a2 83 3d bc 0f 26 3e
       0.025086641 -0.08239424 0.06427549 0.1621694
0000e0 c8 6e 8a bc f2 28 b5 bd de f1 02 be 58 38 d8 bc
       -0.016898528 -0.088457 -0.12787578 -0.026394054
0000f0 1e 31 84 be 6c ee 0a 3e 03 9f c0 3c 6c 8e d6 bd
       -0.25818723 0.13567513 0.023513323 -0.104763836

bottleneck_stride1_3/depthwise_convolution/depthwise_bias f4 [128]
000000 20 f0 7d 3d 37 79 56 bc 60 ff 51 bd c6 fa 40 be
       0.06199658 -0.013090423 -0.051268935 -0.18845662
000010 86 0e 13 bd 88 0a 2f 3c bd bf 4c bd c6 eb 0c bd
       -0.035902523 0.010683663 -0.049987543 -0.03440454
000020 6e 59 1e bd 70 83 28 bd 64 b6 e3 3c 72 1f 99 bd
       -0.038659506 -0.041140974 0.027796932 -0.07476701
000030 43 08 51 3d 78 a4 e9 bb e4 75 a9 3c 21 bb 6c bd
       0.05103327 -0.007130202 0.020686097 -0.057795648
000040 a0 e8 48 3b 1e 27 72 3d 28 0f 0c bd 11 58 a2 bd
       0.0030656233 0.059119336 -0.03419414 -0.079269536
000050 1c f1 34 3c 50 f5 09 3c 1e 07 06 bd 4a c5 d9 bd
       0.011043813 0.008420303 -0.03272163 -0.10633333
000060 ad 6d ad bd a4 77 56 3c e8 10 9c bc f8 92 78 bd
       -0.084681846 0.013090048 -0.01905103 -0.060687035
000070 5c 7f f5 bd 6c 8d 96 bd 28 0a df bc 38 7b dc bc
       -0.119871825 -0.07351193 -0.027226523 -0.026914224
000080 ee 72 e5 3d eb 6f 13 3d 18 5b 47 bd 2c 7a 14 be
       0.11203562 0.035995405 -0.04867086 -0.1449973
000090 ae 17 87 bc 29 30 e5 bc 4a 85 b9 bb d6 1c a4 bd
       -0.016490784 -0.027977066 -0.0056616412 -0.080133125
0000a0 4a 92 b5 bd 88 a8 87 bd af 56 8e bc 90 dc 69 3d
       -0.08865793 -0.06623942 -0.017375318 0.05709511
0000b0 fc 8d 24 be 17 f8 c5 bd dc c1 67 3c 12 f0 9e 3d
       -0.16069788 -0.0966646 0.014145341 0.077606335
0000c0 98 f7 74 bd 80 87 97 bd 92 14 b7 bd 8c 3c a0 3d
       -0.059806436 -0.073988914 -0.0893947 0.078240484
0000d0 54 ef 09 3e 72 8f ab 3c fb a4 b0 bd 88 c7 4c 3c
       0.13470203 0.020942423 -0.086252175 0.012498744
0000e0 f0 f7 07 be 13 44 e3 bd f0 4b 06 bd a8 70 39 3c
       -0.13278174 -0.110969685 -0.032787263 0.011318363
0000f0 96 81 e9 3c 21 cf 7c 3c 80 05 68 be 72 49 06 3d
       0.028504174 0.015430243 -0.22658348 0.032784887
000100 8c 3a 85 bc 98 f1 d5 bb 24 e5 0e be af 0c 32 bd
       -0.016263269 -0.0065290444 -0.13954598 -0.043469127
000110 6d 99 ad 3c ad 0b 69 3d 3a b0 d5 bc ec c1 3b bd
       0.021191323 0.0568959 -0.026085008 -0.045839235
000120 4a 3c 2b bd 69 ab 4b bd 5b 4f 32 bd 1a ea e6 bd
       -0.041805543 -0.049724016 -0.04353271 -0.1127512
000130 2c 8f 50 be b7 ae 84 3c 3c 35 fa bd 14 5e d4 bc
       -0.20367116 0.016196592 -0.12217185 -0.025923766
000140 38 01 3d bc 61 65 04 3d 74 4c a7 3d 3c 20 34 bd
       -0.011535935 0.032323245 0.08168879 -0.043976054
000150 4c ed 8a bd 3a 2e 96 bc 80 50 8e bb d8 b2 97 bd
       -0.06783542 -0.01833259 -0.0043430924 -0.074071586
000160 35 20 8f bd 14 87 f2 bd a2 ca 3a bd d1 35 12 bd
       -0.06988565 -0.1184217 -0.045603402 -0.035695855
000170 42 37 7d bd d6 d9 33 bd f0 67 0a bd 19 db f7 bd
       -0.061820276 -0.043908916 -0.03379053 -0.121023364
000180 66 78 9f 3d 43 9c 25 3d 36 76 b0 bd 6d 01 b1 bc
       0.07786636 0.040432226 -0.08616297 -0.021607125
000190 ec 6d fb 3b 53 02 1d bd 00 81 42 b9 e0 f0 01 be
       0.007673016 -0.038332295 -0.00018549338 -0.12689543
0001a0 88 5e 15 3d e8 80 09 bd 16 67 de bd ce 0e 86 bd
       0.036467105 -0.0335702 -0.10859506 -0.065457925
0001b0 be 35 af bd 6f 59 3d bd 3d f6 ee bd 69 32 6b bd
       -0.085551724 -0.04622787 -0.1166806 -0.05742112
0001c0 ee 80 2f bd 22 23 88 bc 7c 8b 39 be ae 4b 16 be
       -0.042847566 -0.016618315 -0.18119615 -0.14677307
0001d0 f1 63 f2 3c 66 ff d2 3d 20 be 27 bd 3a c6 6f bd
       0.029588671 0.1030262 -0.0409528 -0.058538653
0001e0 74 31 62 bd 8a dc db bc ec 61 fe bc 75 8e 0f bd
       -0.055222943 -0.02683856 -0.031052552 -0.035047967
0001f0 15 a9 5d 3e 11 37 4c bd da fb f2 3c 54 80 4e bc
       0.21646531 -0.049857203 0.029661108 -0.012603838

bottleneck_stride1_4/conv2d/Conv2D_bias f4 [128]
000000 1a 73 f1 be 68 70 92 be b6 0a 04 be d8 1c ec bd
       -0.47158128 -0.28601384 -0.12894711 -0.11528939
000010 b2 d8 91 bc 71 a9 8d be e4 4c 9d bd 95 09 5c be
       -0.017803524 -0.27668336 -0.07680681 -0.2148803
000020 07 02 b0 bd da 28 9a 3d 84 f7 95 be c7 ae 86 be
       -0.08594137 0.07527323 -0.29290402 -0.2630522
000030 48 3e e5 be 59 33 de bc 3f 2f b0 bd 27 fa 57 bc
       -0.4477408 -0.027124094 -0.086027615 -0.0131822
000040 1b 56 55 bc d2 34 ab bd aa 7e 1b bd 8a d0 17 be
       -0.013021017 -0.08359684 -0.037962593 -0.14825645
000050 88 1b bc bd a2 4c 8f be 28 4e 98 3c 04 21 a0 be
       -0.09184939 -0.27988154 0.018591955 -0.3127519
000060 b4 48 1b 3e 96 43 35 3e ac b9 7b 3d 5d 51 33 3d
       0.15164453 0.17701563 0.061456367 0.043778766
000070 28 47 ca 3d d0 e0 9f be 20 8f 56 3c 58 b0 23 be
       0.09876853 -0.31226206 0.013095647 -0.15985239
000080 3c 56 52 be fb 6d df be be 32 60 3d 06 3a 45 3d
       -0.20540708 -0.43638596 0.05473589 0.04815104
000090 c9 e0 35 be ae 01 8f bd 1e 9a 94 bc 5f 04 66 be
       -0.1776153 -0.06982742 -0.018139895 -0.22462605
0000a0 f7 f5 58 be 40 90 08 bf e2 7d 9b be 6a 90 1f 3e
       -0.21187578 -0.5334511 -0.30369478 0.15582433
0000b0 1c bf bc 3c 98 c4 39 be b6 05 b2 bd e2 a7 dd 3d
       0.023040347 -0.18141401 -0.086924955 0.10823037
0000c0 12 4b 2c 3d db c1 02 3e 9a 65 12 3c 3c b5 93 be
       0.04206378 0.12769262 0.0089353565 -0.28849208
0000d0 eb c4 a5 3d 99 21 42 3d 66 2a 20 bd 90 d1 d9 bd
       0.080942 0.047395322 -0.039102934 -0.10635674
0000e0 b9 6e c7 bc 1a e6 6e be 36 17 63 be dc 05 a0 be
       -0.024344789 -0.23329964 -0.22176823 -0.3125447
0000f0 f8 36 3e 3e bc 86 08 be 3a a6 aa bc f4 a0 57 bc
       0.18575656 -0.13332647 -0.020831216 -0.013160933
000100 b8 b4 a3 bd ae fd 78 bd 98 91 8a be a0 00 08 be
       -0.07993454 -0.060788803 -0.27064204 -0.13281488
000110 18 0d a9 be 42 23 9b be 56 f7 ce 3e d6 a7 2e bd
       -0.33017802 -0.30300337 0.40423077 -0.04264053
000120 15 36 61 3e 40 44 58 3e 7c bc 8f be 0c 26 e3 3d
       0.21993287 0.21119785 -0.2807349 0.11091241
000130 a6 c5 a4 bd 47 3a c3 bc 44 81 63 be 8e 59 7c be
       -0.08045511 -0.0238315 -0.2221728 -0.24643537
000140 fb 19 52 be b2 8b b9 3d 02 a6 b9 bc 2d fd 90 3c
       -0.20517723 0.09059848 -0.022662167 0.017698849
000150 04 1a aa bd 60 dd 74 be 26 8b 5b be b7 45 4e be
       -0.08305743 -0.23912573 -0.214398 -0.20143782
000160 96 62 6f bd b2 ae 09 3e ee d4 06 3d 66 53 3a be
       -0.05844363 0.13445547 0.03291791 -0.18195876
000170 a9 75 7d 3e 58 8d 86 be 3a a9 5f be 62 62 41 be
       0.24751915 -0.26279712 -0.21841899 -0.18885186
000180 6e 6f aa bd a0 de 53 be c2 1e 9f bd 52 7b c6 bd
       -0.08322035 -0.20690393 -0.077695385 -0.0969149
000190 7e b7 33 3d 55 fc 7c 3c 5c ed e2 bd 12 55 74 be
       0.043876164 0.01544102 -0.11080429 -0.23860577
0001a0 f6 1a 1d bd 64 39 4a be 80 62 d9 bd a8 70 f6 bd
       -0.03835579 -0.19748455 -0.106144905 -0.12033206
0001b0 54 5b ce bd d8 ff 70 be ae 1e 26 be 10 06 1c be
       -0.10076013 -0.23535097 -0.16222641 -0.15236688
0001c0 56 4e 11 be 9a d4 fd bd e4 85 07 be 3e 20 e4 be
       -0.14190039 -0.12394066 -0.13234669 -0.4455585
0001d0 4c 39 84 be 2e d8 0a 3e cc 7d 00 be 73 22 67 be
       -0.25824964 0.13559029 -0.12547988 -0.22571735
0001e0 17 ee ca be a8 be 08 be d7 45 e3 bd a4 6c 98 3b
       -0.39634773 -0.1335398 -0.11097305 0.004651623
0001f0 ae e5 1e 3e d1 1e 78 be fc 44 e3 be 44 ea b4 be
       0.15517303 -0.24230506 -0.44388568 -0.3533498

bottleneck_stride1_4/conv2d_1/Conv2D_bias f4 [64]
000000 a8 dc 74 bd b4 20 2e 3c fc 46 bb 3b e2 d4 df 3c
       -0.059780747 0.010627914 0.005715249 0.02732319
000010 fa a0 f9 3c f1 09 f7 3a 26 31 59 bd 93 5a 66 bd
       0.030472267 0.0018847567 -0.053025387 -0.056238722
000020 d0 15 4b bd 5c 0f 96 3c 1b 2d 94 3c c4 bc 91 3d
       -0.04958135 0.01831787 0.018087914 0.07116082
000030 96 35 d7 3c de 8b 12 3d 24 d1 4e bd 7a 8c f0 ba
       0.026270669 0.03577792 -0.05049242 -0.0018352412
000040 0e 67 89 3b a7 cc fe bc 36 fe 95 3d fa 6f 8c 3d
       0.0041931933 -0.031103445 0.073238775 0.06857295
000050 ce 41 e1 bc 6d 92 22 bd 7a 0a a3 3c c2 0a b4 bd
       -0.027497198 -0.039690424 0.019902457 -0.087911144
000060 54 d3 18 3d 4e 6a 67 bd 63 68 aa 3c 13 fb 78 3b
       0.037310913 -0.056497864 0.020801729 0.0037991449
000070 53 45 d4 bc 9a 0f bb 3c b0 43 4c bd f6 61 ac bd
       -0.025911963 0.022834588 -0.04986924 -0.08417122
000080 54 e9 76 3b 89 b6 3a 3d 6f df 94 3c d0 e8 3d bd
       0.0037675695 0.045584235 0.018172948 -0.046364605
000090 80 2b 61 3d d2 ea 1f bd 80 77 30 bd da 83 ab 3d
       0.054973125 -0.0390423 -0.043082714 0.08374758
0000a0 f1 d1 80 3d 66 f3 36 bd ff 95 25 bd 0c e1 c9 3d
       0.06290043 -0.044665717 -0.04042625 0.098573774
0000b0 ac 28 1e bd 9e 62 5b bb 12 f1 7c 3d 76 cb 20 3c
       -0.038613006 -0.0033475528 0.06175334 0.009814134
0000c0 61 bb 37 bc e0 5d 4f bc 38 b1 ee 3a ef ba 93 3c
       -0.011214108 -0.012656659 0.0018210774 0.018033473
0000d0 b8 6e 85 bd 2d 2e 7f 3c 5e 44 29 3d 7f 86 c0 bd
       -0.065152586 0.015574974 0.041324966 -0.09400653
0000e0 6a 68 8d 3d 0a ea 68 bb ce 74 62 3d f0 e3 8c bc
       0.06904681 -0.0035539889 0.055287175 -0.017198533
0000f0 bc 7f 89 bd b0 ce 97 bc 2c bc 0b bd e6 eb 95 3d
       -0.067138165 -0.018531173 -0.034115 0.07320385

bottleneck_stride1_4/depthwise_convolution/depthwise_bias f4 [128]
000000 f9 86 2f be 61 48 08 bd 55 d5 a3 3c b7 dd a0 bd
       -0.17141332 -0.03327215 0.019999186 -0.07854789
000010 cc 55 73 bd 6c a6 69 be 48 6e d2 bd 0c bc 98 bd
       -0.059407994 -0.22817391 -0.10274941 -0.07457742
000020 49 0a f8 bc 18 ce 32 bd 1c 22 86 bd fe 41 c7 bd
       -0.030278342 -0.043653578 -0.065494746 -0.09729384
000030 97 43 01 be c0 3b 8c 3b 65 ad d2 bd 5b 62 82 3d
       -0.1262344 0.0042795837 -0.10286979 0.06366416
000040 ed 77 f8 3c cc d3 b9 bd ed ed 45 bd 5c 86 f9 bc
       0.030330623 -0.090736 -0.048322607 -0.030459575
000050 b2 a8 06 bd 8c 79 18 bd dc f4 9d 3c aa e0 bf bc
       -0.032875724 -0.03722529 0.019281797 -0.023422558
000060 d8 9c 6c 3c a3 37 93 bd b1 16 09 bd 16 16 15 be
       0.014441691 -0.07188346 -0.033468906 -0.14559206
000070 8f df 6f 3c 02 84 b7 bb 92 5a 1c 3d f4 50 04 bc
       0.014640703 -0.0056004534 0.038172312 -0.008075941
000080 43 f2 82 bd 63 ca af be e3 3b 4c bd f5 a4 80 bd
       -0.06393864 -0.34334096 -0.0498618 -0.06281463
000090 84 c1 d4 3c 32 34 0c bd 22 c0 9b bd 66 d1 e4 bd
       0.025971182 -0.034229465 -0.07605006 -0.11172752
0000a0 3e b4 ba bd da 48 55 be ea fa 75 be 13 5c 28 3d
       -0.0911641 -0.20828572 -0.24021497 0.041103434
0000b0 3f aa 1a bd 9a 02 20 bd 00 c3 16 bd e0 4a 11 bb
       -0.037760016 -0.03906498 -0.03680706 -0.0022169873
0000c0 b1 54 d6 bd 7c ae 09 bd 44 a4 f0 bc 01 9b 1a bd
       -0.10465372 -0.033613667 -0.029375203 -0.03774548
0000d0 26 76 69 bc 8a f3 85 bc 86 ee b8 3b 42 2b be bd
       -0.01424936 -0.01635148 0.0056436686 -0.092855945
0000e0 7b 6b 74 bc 96 9e 2c bd 59 68 18 be fc 0a d2 3c
       -0.014918203 -0.042143427 -0.14883555 0.025640003
0000f0 b0 fb 06 bb 7a 5d e9 3c ac a8 0a be 50 5a 97 bb
       -0.0020596795 0.028486956 -0.13540906 -0.0046189204
000100 eb fd 83 3c 5b db 1e bd 6a 9f 6c bd 00 74 e1 3a
       0.016112288 -0.038783412 -0.057769217 0.0017200708
000110 c9 41 85 bd a3 fd 90 bd 10 97 a5 3b 12 d8 f1 bd
       -0.06506688 -0.07079627 0.0050534084 -0.1180879
000120 35 83 81 bd ee 30 e3 3c d6 7e c1 bd d8 46 db 3b
       -0.06323854 0.027733292 -0.0944802 0.006691795
000130 28 c1 77 bd c2 fb 71 bd ad d9 8c be a7 24 d0 bd
       -0.060486943 -0.059077986 -0.27509823 -0.10163241
000140 c0 d6 89 bc 98 7f 9d bd be 23 3e 3c 6d 16 cd bc
       -0.016826034 -0.07690352 0.011605201 -0.025035108
000150 18 75 59 bc ee 72 f9 bd 10 3c bb bd 60 16 6a bd
       -0.013272546 -0.12180124 -0.091423154 -0.057150245
000160 e6 cb 62 bc 4e 86 26 3d c4 b9 57 3d dd f2 02 bc
       -0.0138425585 0.040655427 0.052667394 -0.007992473
000170 1e 7f 11 bd d9 57 19 be 8e 6a cc bd 2a 66 9d bd
       -0.03552162 -0.14974917 -0.09981261 -0.07685502
000180 e0 f8 f0 3b 0b 7b ec bc 44 06 d4 bd 1e 64 e7 bc
       0.007353887 -0.028867265 -0.103527576 -0.028245982
000190 c2 3f ee bd 80 b8 a6 bc f6 2a c6 bd 80 d7 39 be
       -0.116332546 -0.020351648 -0.09676163 -0.18148613
0001a0 94 5f 44 bd ee 0d ce bd b0 d9 12 bd f6 80 8b bc
       -0.047942713 -0.100612506 -0.035852134 -0.017029267
0001b0 e0 07 00 bd 4b 98 0c be 45 18 3f be 4c e1 0b be
       -0.03125751 -0.1372997 -0.18661602 -0.13660163
0001c0 98 63 04 bd 99 12 cb bc 50 03 80 bd 8c 6d 17 be
       -0.032321543 -0.024789141 -0.06250632 -0.14787883
0001d0 dc 02 69 bd ac 9d 9d 3d fa 31 96 bc 05 1d 32 bd
       -0.056887493 0.07696089 -0.018334378 -0.043484706
0001e0 24 89 33 be c5 74 8e bd 54 2a 29 bd 76 88 d7 3c
       -0.17532784 -0.06955866 -0.041300133 0.026310187
0001f0 6f 56 49 bc 81 5a 3e bd 11 76 04 bd 63 cd 3d bd
       -0.012288674 -0.04647303 -0.03233916 -0.04633845

bottleneck_stride1_5/conv2d/Conv2D_bias f4 [128]
000000 8d 5c d8 bc d3 32 72 be 36 7d cb be 4d 6e 0f be
       -0.02641132 -0.236522 -0.39743966 -0.1400692
000010 e4 e5 b9 3d cc a3 a2 be 7d 33 9c 3c 71 7f 3b bd
       0.09077051 -0.31765592 0.01906752 -0.045775834
000020 02 ef da bd 4f 2f 96 be 9a cd 1f be fa f6 24 bd
       -0.10690118 -0.2933297 -0.15605775 -0.040274598
000030 21 c6 22 3e b7 00 88 bd 2a 2c c3 3c 73 23 6e be
       0.15895893 -0.06640761 0.02382477 -0.2325571
000040 12 85 03 be 7a ff fa bd 8c b4 ef 3a e9 41 81 be
       -0.12843731 -0.122557595 0.001828806 -0.25245598
000050 e6 91 89 be 42 6c 29 bd 18 84 6a be fc d3 b5 bd
       -0.26869124 -0.04136301 -0.22901952 -0.088783234
000060 96 44 6a be 2e c4 73 bb a6 b9 56 be 20 45 f3 bd
       -0.22877726 -0.003719579 -0.20969257 -0.11878419
000070 e8 1e 93 be f4 3e 88 bc ff a3 97 3d 3a b7 c1 bd
       -0.28734517 -0.01663158 0.07404327 -0.09458776
000080 7c 33 c3 bd 8b f1 1a 3d 0b 8d 9e bd 87 02 ac 3d
       -0.09531304 0.03782801 -0.077417456 0.083989196
000090 cf 38 ab bc a6 a4 8a 3d e3 1a 5d be ac 21 58 3e
       -0.020901112 0.067696854 -0.21592288 0.21106595
0000a0 7a a2 99 bb f6 7e 36 be f8 f0 87 be 4a af 08 3e
       -0.004688558 -0.17821869 -0.26551032 0.13348117
0000b0 20 a7 2d be f8 1e 40 be 94 39 4b be f2 26 f9 bd
       -0.16958284 -0.18761814 -0.19846183 -0.12165631
0000c0 3c 52 9a 3d 15 e3 69 bd e9 27 71 be 9c 4a 1b be
       0.07535216 -0.057101328 -0.23550381 -0.1516518
0000d0 54 8a 3e be be 76 a7 bb 32 ca 96 be b1 12 73 be
       -0.18607455 -0.0051105907 -0.29451138 -0.23737599
0000e0 a6 f1 d3 bd 62 68 a2 be 8e fc 12 be a2 43 38 be
       -0.10348825 -0.31720263 -0.14354154 -0.1799455
0000f0 c6 7f a2 3c 5d 0a fc bd 9a 55 7c be a0 42 20 3e
       0.019836318 -0.12306664 -0.2464203 0.15650415
000100 3a 00 79 be 86 93 b1 3d 6c b2 43 be 28 3b 97 bd
       -0.24316493 0.08670716 -0.19111031 -0.0738433
000110 82 55 b4 be 64 ae 0c 3d b7 4b 58 be ee c0 bb bd
       -0.35221487 0.034346 -0.21122633 -0.09167658
000120 c6 40 0b 3c 1a 02 98 be c6 98 9a bd f0 63 c2 be
       0.00849933 -0.29689103 -0.075486705 -0.3796687
000130 c6 47 31 3d 50 0a f2 3d 2a 3d d2 bc 40 b8 8a 3d
       0.04328134 0.11818373 -0.02566393 0.06773424
000140 f1 e3 3e 3d e4 32 24 bd d7 a4 82 be 5c 30 7d 3d
       0.0466041 -0.040087596 -0.25516388 0.061813697
000150 f7 07 6a be a8 18 87 be 1c d5 7d bd 28 f7 14 be
       -0.22854601 -0.26386 -0.061970815 -0.14547408
000160 50 90 74 be ac 1c c3 3c 94 f8 6f be 7e 48 94 bd
       -0.23883176 0.023817383 -0.23434669 -0.07240389
000170 f9 89 3e be c8 53 da bd 95 eb 83 bc f4 12 db 3d
       -0.1860732 -0.10660511 -0.016103545 0.106969744
000180 2c 48 d3 3d e4 42 cd be e6 dd bf bd fa b7 f5 be
       0.103165 -0.40090096 -0.09368496 -0.47991925
000190 ff 84 b9 3d ea 76 ad be a0 5a c6 be 5a 53 09 be
       0.0905857 -0.33879787 -0.38741016 -0.13410702
0001a0 63 c9 2a be 34 ac 2b 3d 46 3a b2 bd 24 7f 47 be
       -0.16678385 0.041912273 -0.08702521 -0.19482094
0001b0 10 e9 65 be 56 1e cf bd 8e ec ca be a8 32 2d bd
       -0.22452188 -0.10113208 -0.39633602 -0.042284638
0001c0 09 6e 3e 3e 84 57 59 bd 36 b0 02 bf d5 78 18 be
       0.18596663 -0.053061977 -0.51050127 -0.14889844
0001d0 4a 57 44 be 8a 36 79 be 72 32 56 bd f6 aa 6a be
       -0.19173923 -0.24337211 -0.052294202 -0.22916779
0001e0 8e db 1e 3d 70 f8 a8 3c d5 12 d6 bd 26 72 1d be
       0.038783602 0.020626277 -0.10452811 -0.15375575
0001f0 de 3b 41 be f1 88 19 be 42 5d 15 3d 92 4f 3f be
       -0.18870494 -0.14993645 0.03646589 -0.18682697

bottleneck_stride1_5/conv2d_1/Conv2D_bias f4 [64]
000000 a8 b0 9f 3b 1c fc eb 3c 52 ea a2 3c d6 cf 18 3d
       0.004873354 0.028806739 0.019887123 0.037307583
000010 a4 56 0c 3c dd 6c 04 3c 1b 8a d1 bc 48 9b 29 bd
       0.008565579 0.008082596 -0.02557855 -0.041407853
000020 94 2c 4e bd a2 5d 01 3d 1a 9c 1e 3d 58 37 41 3d
       -0.05033548 0.031583436 0.03872309 0.04717192
000030 7a 42 9f 3c 8e 21 86 3d bd b9 30 bd 9d 20 a3 bc
       0.019440878 0.06549369 -0.043145884 -0.019913012
000040 23 f6 98 bc 76 d7 5c bc 92 cb 88 3d 08 92 86 3d
       -0.018672055 -0.013479104 0.06679453 0.06570822
000050 fa 8e 44 bd 28 e6 6f bc f7 73 57 3c 26 62 6f bd
       -0.047987916 -0.014642276 0.013150207 -0.05844321
000060 9a bb 98 3d bd 99 83 bd f0 6e 86 3c e2 c3 f1 bc
       0.07457657 -0.064258076 0.016410321 -0.02951235
000070 96 0b 49 bd 5f 50 df 3c c8 ef 5b bc 8e 6f 04 bd
       -0.049083315 0.027260004 -0.0134238675 -0.03233295
000080 56 15 41 bc ae 97 43 3d 6e c6 13 bd e6 b1 43 bd
       -0.011784872 0.047752075 -0.03607791 -0.04777708
000090 84 71 12 3d 22 a9 21 bd 88 07 2d bd ad 5b 9a 3d
       0.03575279 -0.03946794 -0.04224351 0.07537017
0000a0 88 07 ad 3d 53 6c 13 bd 2e b1 0e 3b 4c 2f 0f 3d
       0.08448702 -0.035991978 0.0021773088 0.034957215
0000b0 11 da 20 bd 16 b6 bc bd 26 a7 39 3d 9a ee de 3c
       -0.039270464 -0.09214418 0.04532542 0.027213383
0000c0 94 4d 85 bb 30 bc 44 3d be 2f fa bb cc af ab 3c
       -0.004068086 0.048031032 -0.007635086 0.02095785
0000d0 16 7c 95 bd 96 97 8b ba 02 db d0 3c e6 ce 8e bd
       -0.07299058 -0.0010650035 0.025495056 -0.069730565
0000e0 b5 a7 ed 3c ee 3a 20 3c 26 4f d8 3c dd 46 bd ba
       0.029010633 0.009779675 0.026404928 -0.0014440675
0000f0 31 69 90 bd f7 6b 24 bd 4c 43 31 bd 72 50 6d 3d
       -0.07051314 -0.040142026 -0.04327707 0.057938047

bottleneck_stride1_5/depthwise_convolution/depthwise_bias f4 [128]
000000 46 6a 1d 3d a4 07 be bd cc a4 c5 bd 2b fd 47 bd
       0.03843143 -0.09278801 -0.09650573 -0.048825424
000010 d8 c5 a5 3d 44 9f 91 bd 07 d7 08 bd 45 d8 96 bd
       0.08094376 -0.07110456 -0.03340819 -0.07365469
000020 96 43 b2 bc 01 09 7f bd 8e 1d 90 bc 80 01 9e 3c
       -0.021760743 -0.062264446 -0.017592218 0.019287825
000030 f0 13 82 3b c8 cd 21 bd 2c d4 af bc 54 fb b6 bd
       0.003969662 -0.03950289 -0.021463476 -0.08934656
000040 00 8f 92 bb 94 e0 3b bd 8e e9 f0 bc 8b 10 9e bd
       -0.0044726133 -0.04586847 -0.029408243 -0.07717999
000050 97 15 c0 bd 56 a9 9f bc d5 72 0b be 50 76 ea bd
       -0.09379118 -0.019489925 -0.13618024 -0.114483476
000060 08 70 04 be e0 c8 6f bd 54 cf f0 bd 12 e3 00 be
       -0.12933362 -0.05854118 -0.11758295 -0.1258662
000070 c0 5a 3b 3b 10 e8 85 bd b4 c9 be bb 00 91 72 ba
       0.0028588027 -0.06538403 -0.0058223847 -0.0009253174
000080 80 d8 be bd 74 b1 3e bc 97 74 10 be 46 27 dc bd
       -0.09318638 -0.011638988 -0.14106975 -0.10749678
000090 2f 17 6a 3d 65 df 27 bd 8c 5c 34 bd b0 87 e8 3b
       0.057151016 -0.04098453 -0.044033572 0.0070962533
0000a0 33 26 28 bd ea f5 e5 bc 37 87 65 bd 57 0b 4d 3c
       -0.041052055 -0.028071363 -0.056037154 0.012514911
0000b0 1e 74 d3 bd a9 4f 1f bd f1 e3 0d bd d0 a7 e0 bd
       -0.10324882 -0.03889433 -0.03464121 -0.10969508
0000c0 d6 5c e0 3c 6b 95 0b be 92 dd d0 bd 9d 77 b6 bd
       0.027388018 -0.13631217 -0.10198511 -0.08909533
0000d0 3f d3 af bd b6 38 ae bd 87 52 02 3d 76 ec cc bc
       -0.08585214 -0.085069105 0.031816985 -0.025015097
0000e0 dc 77 c0 3c 37 b7 2b bd a5 f3 91 bd cc 7f 3c be
       0.023494653 -0.041922774 -0.0712655 -0.18408126
0000f0 d5 97 97 bd f3 ab 7e bd a9 ca d8 bc 50 7c 89 3c
       -0.074020065 -0.062175702 -0.026463823 0.01678291
000100 ce 51 9c bc 3e 2c 62 bd 5b f3 4a bd 4a ba 2f 3d
       -0.019081976 -0.055217974 -0.049548488 0.04290227
000110 c4 91 26 bd 1c 9d cb 3c 0e 97 e6 bd 78 02 a6 3c
       -0.040666357 0.024855189 -0.1125928 0.020264849
000120 38 67 57 bd 50 46 78 bd 35 4f 24 be f2 52 79 be
       -0.05258867 -0.06061393 -0.1604584 -0.24348047
000130 a0 7d d7 3a 87 be 80 bd d4 b6 ef 3b 42 f9 81 bd
       0.0016440637 -0.0628634 0.007315496 -0.0634637
000140 82 d3 91 3d b2 f0 cc 3c 92 84 f2 bd ac 13 ab bc
       0.0712042 0.025017116 -0.11841692 -0.020883404
000150 a1 76 07 be 7a 83 dd bd c0 c1 59 ba c9 33 b0 bd
       -0.13228847 -0.10816093 -0.0008306764 -0.08603627
000160 62 4d 4f bd c7 be 09 3e 60 47 82 bd b7 c1 84 bd
       -0.050610907 0.13451682 -0.0636127 -0.06482261
000170 5f b1 76 bc 02 16 85 bd 69 57 9b bc 18 16 92 3d
       -0.015056937 -0.06498338 -0.018962579 0.0713312
000180 40 a8 2e 3a 79 35 13 be 88 5d 50 bb 08 59 73 bc
       0.00066626444 -0.14375867 -0.003179403 -0.01485277
000190 fc 24 cb 3c 82 ec eb bd b8 f1 cf bd b4 56 02 bd
       0.024797909 -0.1151972 -0.10153526 -0.031820968
0001a0 5f 22 c6 bd 58 33 a6 bd a1 7b b1 bb 0c 67 11 bc
       -0.096745245 -0.08115262 -0.005416349 -0.008874666
0001b0 9b ad 0c be 28 8e d6 bd 7d 8d 35 bd 13 92 36 bd
       -0.137381 -0.10476333 -0.044324387 -0.0445729
0001c0 d0 b7 a5 ba 05 35 d7 bd 0e ae ef bd 79 f9 84 bd
       -0.0012643281 -0.105081595 -0.1170312 -0.06492896
0001d0 58 79 a7 bc e4 b9 77 bd 55 10 17 bd c3 12 9b bd
       -0.020443603 -0.060480013 -0.03688081 -0.07571938
0001e0 0e 54 cc bd b0 be 92 3b a8 e8 73 bc 43 a3 21 bd
       -0.0997697 0.004478298 -0.014887013 -0.03946234
0001f0 82 bc 8d bd 46 bb a9 3c be 4f 9d bd 24 08 0f be
       -0.06920721 0.020719182 -0.07681225 -0.13967949

bottleneck_stride2/conv2d/Conv2D_bias f4 [48]
000000 e4 12 b5 bc 68 c8 22 be cf 6d 0d 3e 54 23 89 bd
       -0.022103734 -0.15896761 0.1381142 -0.066961914
000010 8a f6 ba bd ec 8c 0c 3e 78 86 8d 3c 9c 69 cb bd
       -0.09129055 0.13725632 0.017276034 -0.09932253
000020 c6 8a b3 bd 27 23 5a 3e 08 02 df bc 46 e7 8a bc
       -0.08766703 0.21302472 -0.027222648 -0.016955983
000030 c1 54 de bd 22 22 17 3e 25 be 2b bc 30 9a 9e bc
       -0.10856009 0.14759114 -0.010482346 -0.019360632
000040 36 5a 9a bd d7 83 bc 3d b8 64 ff 3d dc 9e 24 3d
       -0.075367376 0.09204834 0.124703825 0.040190563
000050 7e da 97 bc d9 2c 86 bd fe 29 38 bd f0 84 c7 3c
       -0.018536802 -0.06551523 -0.044961922 0.024355382
000060 9a 0f 87 3d 7c 5d 46 bd a5 a0 9f bd d6 d5 cb 3c
       0.06594773 -0.048428997 -0.077943124 0.024882238
000070 fa 4b 9f 3d 68 a8 6e bd f0 00 56 3d 06 36 25 3c
       0.07778163 -0.058266073 0.052246988 0.010083681
000080 11 3c 65 bd 48 63 1e 3d 62 4e 73 bc 94 17 db bb
       -0.055965487 0.0386689 -0.014850231 -0.0066861603
000090 22 4c 21 3b 86 0a 73 bc cb 6e a8 be 10 d4 eb 3c
       0.002461203 -0.014834052 -0.32897028 0.028787643
0000a0 b6 a1 2c 3e c7 5b 32 3e 92 33 56 3e 1c 09 00 3e
       0.16858563 0.17417823 0.2091811 0.12503475
0000b0 cb 63 a9 bc 04 34 30 be 6f 9b 89 bc 92 a3 d1 bc
       -0.020677468 -0.17207342 -0.01679775 -0.025590692

bottleneck_stride2/conv2d_1/Conv2D_bias f4 [24]
000000 87 35 14 3c ba a0 9d bd 5d 09 be bd 24 bf 9e bd
       0.009045965 -0.07696672 -0.0927913 -0.07751301
000010 72 bc 40 3d ae 46 91 bd 7b 05 dd 3d fe ad c4 bd
       0.047054715 -0.07093559 0.10792061 -0.09603499
000020 c7 69 a9 3d 7c d5 bd bd 00 29 50 3d f5 bc 0a be
       0.082721286 -0.092692345 0.05082035 -0.13548644
000030 94 1e b6 3c d8 22 52 3d 7a f5 de bd 12 85 e4 bc
       0.022231378 0.05130276 -0.10886665 -0.027895484
000040 14 6b 2f bd 75 47 e0 bd c0 18 8e 3d 14 7d e6 3d
       -0.042826727 -0.10951129 0.069383144 0.112543255
000050 ce d5 f8 3c 7e e6 09 39 ac ae eb bd cd d2 b2 3d
       0.030375388 0.00013151203 -0.115079254 0.08731613

bottleneck_stride2/depthwise_convolution/depthwise_bias f4 [48]
000000 2e 5a 43 3e 7b c6 cd bd 90 c6 99 3d 08 de 41 3e
       0.1907737 -0.10047623 0.07508576 0.18932354
000010 88 08 42 bd 8d 19 1f 3e 7a f5 92 be e0 8e 05 bc
       -0.047371417 0.1553709 -0.2870291 -0.00815174
000020 c1 fa 1c 3d 6a 59 4c 3e cf 0f 88 3d 7a 50 5f be
       0.038325075 0.19955984 0.0664364 -0.21808043
000030 bc 33 5e 3c 1c 2e 23 3c 8d 46 91 3e be 46 63 bd
       0.013562139 0.009959724 0.28374138 -0.055487387
000040 be 0b 05 bd 02 67 04 bd 17 f3 80 be b3 3c 99 3e
       -0.0324819 -0.0323248 -0.25185463 0.29929122
000050 07 d4 a2 bd 4b 36 2a bd 80 15 e6 bd 81 77 98 3d
       -0.07950597 -0.041555684 -0.112345695 0.074446686
000060 5d a4 06 3d 32 1c 04 bd ea ee b0 bc 3d 44 35 be
       0.032871593 -0.03225345 -0.021598298 -0.17701812
000070 18 7e 88 3d 07 7b 70 3e 4f 10 af 3e f3 58 64 3e
       0.066646755 0.23484431 0.3419213 0.22299556
000080 c0 36 f5 bd 2e 98 03 3c 50 83 cd 3d 10 8f 21 be
       -0.11973333 0.008031888 0.100348115 -0.1577723
000090 30 e8 04 3e 66 2f 3d be 22 e9 6b bc 88 a6 e9 3d
       0.12979198 -0.18475112 -0.014398845 0.114087164
0000a0 df ad 9e 3d e2 ae 46 3d 72 88 9f be b4 6e 83 3d
       0.07748007 0.048506625 -0.31158787 0.06417599
0000b0 50 f7 a2 3d e5 86 aa 3d 6d e2 78 be 6d e2 79 3c
       0.07957327 0.0832651 -0.24305125 0.015251738

bottleneck_stride2_1/conv2d/Conv2D_bias f4 [64]
000000 04 28 84 bd a0 1e fd 3d 46 9d 11 3e e3 2c 7f bd
       -0.06452945 0.12359357 0.14220151 -0.062298667
000010 6c 26 74 3d 8d f6 76 bd ef 55 ea bd 20 93 08 bc
       0.059606954 -0.060293723 -0.11442172 -0.008335859
000020 c6 68 21 be e6 c7 88 3d 82 90 1f 3d c2 c9 fe bd
       -0.15762624 0.066787526 0.038956173 -0.12440826
000030 d4 24 a9 3c fc 74 8f 3c 00 a7 ab bd c4 6d ba 3d
       0.020647444 0.017511837 -0.08381462 0.091029674
000040 0c b4 7b 3d f8 f5 1f bd d0 60 d3 3c d8 21 10 3d
       0.061451003 -0.039052933 0.025803 0.035188526
000050 cc 7b 92 be d6 c4 c6 bb c6 9d 89 3d 2d 3f bb bc
       -0.28610075 -0.006065945 0.06719546 -0.022857273
000060 91 1a 62 3c 4c f6 24 3c 2c c9 1e 3e ec a2 c1 bd
       0.013800279 0.010068487 0.15506428 -0.09454903
000070 ce 82 85 3d a6 81 e2 3d 3f 26 47 be b5 51 9d 3c
       0.0651909 0.11059885 -0.19448183 0.019204
000080 ee 0c 8f bc 16 6d 06 3d f8 a4 d8 3d e8 eb 6c bd
       -0.01746222 0.032818876 0.1057834 -0.057842165
000090 fa 83 95 3d e6 6e a4 3d dd 39 82 3d 42 b8 ec 3b
       0.07300563 0.08028965 0.06358693 0.0072241137
0000a0 06 ae d1 bd 9e 05 69 3d 70 35 bf bd 12 88 02 be
       -0.102382705 0.056890123 -0.09336364 -0.12747219
0000b0 3a 18 fc bd 76 7b 6e bc b8 ac b9 bd 31 04 af 3d
       -0.12309308 -0.014555803 -0.090661466 0.08545721
0000c0 34 50 1a bd cb 15 3a 3d de 23 04 be ef 81 84 bd
       -0.037674144 0.04543094 -0.12904307 -0.06470095
0000d0 50 8e d8 bc 12 ac a3 bd 3b 12 ad bd 38 63 6b 3d
       -0.026435047 -0.07991804 -0.08450743 0.05746767
0000e0 8c 01 d8 3c 6a 06 e5 3d 2e bc 61 3c f1 f7 d1 bd
       0.026367925 0.11182864 0.013777776 -0.10252369
0000f0 d6 ae f9 bd f6 d0 17 3e a0 84 12 3e 06 d7 e3 3b
       -0.121915504 0.14825806 0.14308405 0.006953123

bottleneck_stride2_1/conv2d_1/Conv2D_bias f4 [32]
000000 fc f8 bf 3d 74 fa 63 bd 96 24 7d bb 24 c1 2f bd
       0.09373662 -0.055658773 -0.0038626543 -0.042908803
000010 15 18 9c 3d 24 c2 35 bc 4c 34 9a bd 02 13 0a 3e
       0.07621781 -0.01109365 -0.07529506 0.13483813
000020 09 d9 e0 3d a4 97 91 3d be 34 c4 3d 40 96 b4 3d
       0.10978896 0.07109001 0.09580372 0.088177204
000030 6a 26 6c 3d 80 cd 8c bd 55 3b 53 3b f3 da 67 bd
       0.057653822 -0.068751335 0.003223141 -0.05660529
000040 0b e9 31 bd 01 93 79 3d e6 19 8e 3d 41 66 4e 3c
       -0.043435138 0.06093121 0.069385335 0.012597621
000050 fc 4d 36 be f4 83 f9 bd 2a d5 bf 3d 33 17 d5 3d
       -0.17803186 -0.12183371 0.0936683 0.104048155
000060 46 19 c6 bb 86 24 ad bd cf 6c 75 3d 41 76 8a bd
       -0.0060454933 -0.08454232 0.05991822 -0.067608364
000070 0c 54 d9 3d 62 1b e9 3d 86 8c b8 bd e0 bd bd bd
       0.10611734 0.11382176 -0.09011178 -0.092647314

bottleneck_stride2_1/depthwise_convolution/depthwise_bias f4 [64]
000000 34 ac cd bd 98 13 c5 3d 8a c0 12 3e 5b f3 1f be
       -0.10042611 0.09622878 0.1433126 -0.15620176
000010 c0 66 8d 3d 59 90 24 be 14 d2 3b bd b2 3e b4 3c
       0.06904364 -0.1607069 -0.045854643 0.022002552
000020 ee 43 b2 3d 2e 0a ff bd 6a bb 50 bd 32 23 f3 3d
       0.08704363 -0.124531135 -0.050959982 0.11871947
000030 98 57 ee bd 90 d1 94 3d a0 6c 96 3e f8 be 6c 3e
       -0.11637801 0.072665334 0.2937975 0.23119724
000040 24 9b 96 3e 46 bb dc bc f5 10 21 bd 84 a9 0b 3d
       0.29415238 -0.026944768 -0.039322812 0.03409721
000050 b0 c1 43 3e d8 e5 a9 bd 10 6f 75 3e 6d 08 31 3d
       0.19116855 -0.08295792 0.23968148 0.043220926
000060 b0 d7 eb bc 7b 4d f1 bc 12 aa 99 3e 4d 96 2c be
       -0.028789371 -0.02945589 0.30012566 -0.1685421
000070 02 03 d9 bd 45 19 86 3d c0 e6 57 be 4c 8e 0e 3d
       -0.10596277 0.065477885 -0.21084118 0.034803674
000080 55 4f 84 bd 77 3b c4 bd 40 cb ed 3c d4 09 b3 bd
       -0.06460444 -0.095816545 0.029027581 -0.08742109
000090 80 05 71 3e 64 44 40 3d da 17 15 3e d6 fa 81 bd
       0.23537254 0.046940222 0.1455988 -0.06346671
0000a0 94 7f 7a be 19 4d 1c be 70 c3 22 be 8a 90 e6 bd
       -0.2446273 -0.15263785 -0.15894866 -0.112580374
0000b0 38 b7 b4 3d 3f 69 0d 3c 0d d8 3c 3e f2 62 0d bd
       0.08824009 0.00863105 0.18441792 -0.03451819
0000c0 d4 be 0b bc c8 09 1f bc a1 18 b5 bd e0 d3 5e bb
       -0.008529384 -0.009706922 -0.08842588 -0.00340008
0000d0 57 e1 02 bd 71 e1 91 3e 18 03 56 be 93 78 7f bd
       -0.031953182 0.2849231 -0.20899618 -0.062370848
0000e0 6c 2e dd bd b1 00 49 bd b8 dc 6e bc 88 03 a0 bd
       -0.1079987 -0.049072925 -0.014578991 -0.078131735
0000f0 01 de 9a bd 05 8c 31 3e 40 8b da 3d 4e fb 0e bd
       -0.07561875 0.1733857 0.10671091 -0.03490763
